…
                                    <span className="label">Type</span>
                                    <span className="value">Sequential</span>
                                </div>
                            </div>

                            <div className="architecture-details">
                                <h4>Model Architecture: "sequential_2"</h4>
                                <pre className="code-block">
                                    {`Layer (type)                    Output Shape           Param #
=================================================================
conv2d_6 (Conv2D)               (None, 256, 256, 32)   320
max_pooling2d_6 (MaxPooling2D)  (None, 128, 128, 32)   0
conv2d_7 (Conv2D)               (None, 128, 128, 64)   18,496
max_pooling2d_7 (MaxPooling2D)  (None, 64, 64, 64)     0
conv2d_8 (Conv2D)               (None, 64, 64, 128)    73,856
max_pooling2d_8 (MaxPooling2D)  (None, 32, 32, 128)    0
flatten_2 (Flatten)             (None, 131072)         0
dense_4 (Dense)                 (None, 128)            16,777,344
dropout_2 (Dropout)             (None, 128)            0
dense_5 (Dense)                 (None, 11)             1,419
=================================================================
Total params: 16,871,435 (64.36 MB)`}
                                </pre>
                            </div>

                            <div className="confusion-matrix">
                                <h4>Confusion Matrix</h4>
                                <img src="/assets/images/cnn_cm.png" alt="CNN Confusion Matrix" />
                            </div>
…
